focus_eegnet_4ch.pth (torch, 79569 bytes, 16 tensors)

conv1.weight f4 [16, 1, 1, 64]
000000 6d 95 bb 3d 9b 28 eb bc b5 c8 81 3d 02 87 16 bd
       0.0915936 -0.028705886 0.0633711 -0.036749847
000010 c7 e9 00 be 33 9e 64 3d d6 b2 ff bc e8 32 a3 bd
       -0.12589179 0.055814933 -0.031213205 -0.07968694
000020 da 4b dc 3d 28 38 80 3d a3 2b 94 3d 72 13 9c bd
       0.10756655 0.06260711 0.072348855 -0.076208964
000030 bc 01 c4 bd 85 88 e5 bd f1 eb 9f bc 6b 6c c6 bd
       -0.09570643 -0.1120768 -0.019521685 -0.09688648
000040 fb 0c 20 bd 6f c0 04 bc 89 a8 0b 3d 31 be d1 bc
       -0.03907488 -0.00810252 0.034096275 -0.025603386
000050 0c 72 0c 3e b7 57 08 bd 6e 15 0d 3d ef e9 12 3c
       0.1371538 -0.033286776 0.034444265 0.008966907
000060 0d a6 0e 3e 8a 73 58 3d b5 1e db 3d 37 ae 28 3d
       0.13930531 0.05284456 0.10699216 0.04118177
000070 d0 1b 1f 3e a6 09 96 3d 6a b8 6a 3c 30 8b 9e 3c
       0.15537953 0.07326059 0.014326194 0.01935348
000080 25 f1 a0 3d e5 3b 03 bd 6f de 9a bd 3f 9b a1 bd
       0.07858495 -0.03203954 -0.07561957 -0.07890939
000090 af 5d 7f 3d 4d 6d ea bd c4 df ec bd 33 66 6e 3d
       0.062345203 -0.11446629 -0.115661174 0.058202934
0000a0 42 e8 9d bd df 03 e9 bd bb 34 d4 3c 1d 4d 50 3d
       -0.07710315 -0.113776915 0.02590405 0.05085479
0000b0 ed 78 bd bd 91 a5 81 bc 70 14 f2 3d 64 61 b9 bd
       -0.092515804 -0.015826019 0.118203044 -0.09051779
0000c0 39 b8 a8 3d 9d 10 b5 bd 2b d3 06 3e ac 56 d7 3d
       0.08238263 -0.08841059 0.13166492 0.10514578
0000d0 50 1d be bd 78 d1 8c bd c1 f7 a1 bd 96 f5 09 3e
       -0.09282935 -0.068758905 -0.079085834 0.1347259
0000e0 d7 fb 11 3d 0f 8e 95 bd 20 e0 fb bc aa a4 3d bc
       0.035640564 -0.07302486 -0.03074652 -0.0115749035
0000f0 4b d4 96 3d b4 c0 a9 bc 23 54 c7 3d ff 1e f6 3d
       0.073647104 -0.02072177 0.09732845 0.12017631
000100 90 aa 76 3c a0 60 dc bd fe 79 23 3d 06 53 bf bc
       0.015055314 -0.10760617 0.039911263 -0.023355018
000110 71 16 3c bd 1b 9d fa 3d 71 36 e4 3d 85 a9 91 3d
       -0.04591984 0.12236997 0.111431964 0.071124114
000120 8d 1d 5b bd 75 ff e5 bd ee 86 c8 bc 9c 90 03 bb
       -0.05349498 -0.11230365 -0.024478402 -0.0020075208
000130 02 45 f0 bd a2 0c fd bd 04 13 9c 3d ce e0 70 bc
       -0.11731912 -0.12355925 0.076208144 -0.014702035
000140 63 1e b5 3d 7c 5d 98 3a 9b 75 07 3d bf 08 14 3d
       0.088436864 0.001162454 0.03307114 0.036141153
000150 9f 85 29 3e 79 95 8c bd 31 8e c2 3c e9 e7 b7 bd
       0.16554879 -0.06864447 0.023749443 -0.0897978
000160 40 2e 7f 3d a6 49 e2 3d 20 7c 3b bd c3 6a ca bc
       0.062299967 0.110492036 -0.04577267 -0.024709111
000170 5e 0a 6d 3d 5d dc ce bc 3c 74 0f bd b2 08 54 bd
       0.057871215 -0.025251562 -0.03502296 -0.051766105
000180 ff 7c b4 bd 39 90 a8 bc f1 29 a2 bd dc d0 d5 3d
       -0.088129036 -0.020576583 -0.07918156 0.104402274
000190 85 b1 85 3d 45 e4 1b 3d c7 0c c2 bc da 09 b1 bc
       0.06528 0.03805949 -0.023687733 -0.021611143
0001a0 a6 6e 5d bd 55 41 eb bc 2f ea 2e bc 09 65 a4 3d
       -0.0540606 -0.028717676 -0.010675951 0.080270834
0001b0 15 a5 17 3e fe 04 3c 3d d9 e5 31 bd c0 f6 14 3c
       0.14809068 0.0459032 -0.04343209 0.009092033
0001c0 65 a3 1b 3b 74 07 e9 3d 22 f0 89 3d 90 ea 8d bd
       0.0023748514 0.11378375 0.06735255 -0.06929505
0001d0 a0 c3 e3 3d 52 d7 9d 3d 6f 38 a9 bd 47 b9 c7 bd
       0.11121297 0.07707085 -0.08262717 -0.09752136
0001e0 8c 1d b0 3d 9a 65 d9 bd a9 01 d3 bd 31 aa 94 bd
       0.085993856 -0.10615082 -0.10303051 -0.07259024
0001f0 5e bb 7c bc 06 20 ec ba b7 6a 81 ba 7e 96 80 bd
       -0.015425531 -0.0018014915 -0.0009873722 -0.06278704
000200 8e 7b d4 bd 3b 84 eb bd 75 c0 23 bd 18 c5 c0 3d
       -0.10375129 -0.1149983 -0.039978463 0.09412593
000210 e6 86 c1 3d be 62 37 3d 7c 12 84 3c 82 7c 5c 3d
       0.09449558 0.044771902 0.016122095 0.053829677
000220 5a 68 2e bd ec 60 bc bd 54 1a 1e 3d 24 af fd bd
       -0.042579986 -0.09198174 0.038599327 -0.12386921
000230 e6 d7 2b bd 1b 57 dc 3c b0 73 cf 3d ed 90 47 bd
       -0.041953944 0.026897004 0.101294875 -0.048722196
000240 4d 5f dd 3d 93 8a 2a bd 2b f6 0b bd b4 1b ac bc
       0.10809193 -0.04163606 -0.03417031 -0.021009304
000250 9b cd a5 3d 3e ac 03 bd 24 a0 3b bd 21 93 4c bd
       0.08095857 -0.032146685 -0.04580702 -0.049945
000260 5d 38 61 bd e8 0e e0 3d 6a d7 92 3d a7 b5 01 3d
       -0.054985393 0.10940343 0.07169993 0.031667378
000270 88 7b 98 bd c0 49 be bc 92 7c 89 bd b9 ab e0 3d
       -0.07445437 -0.023228526 -0.06713213 0.109702535
000280 07 20 21 3d 3c 92 77 bd 8b 56 3e bd 47 23 bc bd
       0.039337184 -0.060442194 -0.046469253 -0.09186416
000290 db b0 ab 3c b9 2a 22 3d f4 36 89 bd 39 c9 12 3d
       0.020958355 0.039591525 -0.066999346 0.035836432
0002a0 3d 7e f4 bd 88 bd 1a 3d b9 5a c2 bc ee 33 3a bd
       -0.119381405 0.037778407 -0.0237249 -0.04545968
0002b0 6a 59 d1 3d 4a 9f 82 3d dd 0f a1 bd 27 54 b8 3d
       0.102221325 0.06378038 -0.07864354 0.09000426
0002c0 2d 06 b0 bd 90 d0 1a bc 79 e5 d3 bc 55 f0 c4 bd
       -0.08594928 -0.009449139 -0.025866257 -0.09616152
0002d0 d9 b3 f8 bc 24 9b a1 bd b2 8b f0 3d d5 b3 86 bd
       -0.030359196 -0.07890919 0.11745395 -0.06577269
0002e0 81 72 87 3b d5 2c ff 3d 9e 0d b2 bd 26 9e f2 3d
       0.004133523 0.12459723 -0.086940035 0.11846571
0002f0 1f 77 4f 3c 92 d4 5f 3b 40 1d 91 3d bf 70 6a 3c
       0.012662678 0.0034153801 0.07085657 0.014309107
000300 27 03 4e bd 06 9d b9 3c 69 86 42 3d 2e 5b af bd
       -0.050295975 0.022657882 0.047491465 -0.08562313
000310 b2 a2 eb bd 74 ef 0b 3d c5 44 44 3d 4f 56 c3 3d
       -0.11505641 0.034163907 0.047917146 0.095379464
000320 95 c2 00 3e 1e 6b 3b bd 42 db 8c bd 21 3f 06 be
       0.12574227 -0.04575645 -0.068777576 -0.1311002
000330 71 e0 eb 3c 8f 94 1d be eb cb bc 3d 2c 10 16 be
       0.028793545 -0.15388702 0.09218582 -0.14654607
000340 b5 fe d4 3d 3f 76 69 3d 7f ce f6 3d be 59 88 3d
       0.10400144 0.056997534 0.12051105 0.06657742
000350 9f cb 4f bd a9 d9 4e bd 0a 38 82 3d e9 34 ef bd
       -0.050731298 -0.050500546 0.06358345 -0.11680014
000360 4c 87 59 3b e8 40 90 3d 2b 0b be 3c 3e 74 23 3d
       0.0033192215 0.0704363 0.023198685 0.03990578
000370 28 89 92 bc 80 6f bd 3d 23 98 29 3d e7 cb 92 3d
       -0.017887667 0.092497826 0.041404855 0.071677975
000380 4a a4 86 3d 0c 07 3c 3d 88 5b 45 3d 01 10 d0 bd
       0.065743044 0.045905158 0.048182994 -0.101593025
000390 7e 8c a3 3c d6 8c 23 bc 4c 03 a7 3d 58 09 84 bd
       0.019964453 -0.009982308 0.08154926 -0.06447095
0003a0 f5 e9 e8 3c af 7c d9 bc 68 4d 4a 3d 3c d4 aa bd
       0.028431872 -0.026548712 0.049390227 -0.08341262
0003b0 c6 f1 b7 bc c2 f0 66 bd b5 bf dd bb a3 89 30 bd
       -0.022454154 -0.05638195 -0.006767238 -0.04310001
0003c0 cc 80 cb bc 39 ae 40 3d b6 cc 26 3d 09 70 32 3b
       -0.024841689 0.04704115 0.04072257 0.0027227423
0003d0 b6 72 19 3e f8 e7 36 3d 72 c2 84 3d f1 60 8c bb
       0.14985165 0.044654816 0.064824 -0.0042840173
0003e0 ee 60 87 bd 69 f9 10 3d cf 0f 9c bd 57 17 8f 3b
       -0.06610285 0.035394106 -0.07620203 0.004366796
0003f0 94 5c 12 3d 44 73 e4 3d 28 5d b2 3d 19 73 da bb
       0.03573282 0.11154798 0.087091744 -0.0066665527

batchnorm1.weight f4 [16]
000000 d2 dc 85 3f c0 90 84 3f b0 7d 84 3f b1 56 91 3f
       1.0458014 1.0356674 1.0350857 1.1354581
000010 b5 fb 83 3f 9a d5 8f 3f 7e 6f 86 3f d2 49 8b 3f
       1.031119 1.1237061 1.0502775 1.0881903
000020 d7 6c 8b 3f a1 90 89 3f 13 64 84 3f b2 cf 8a 3f
       1.089259 1.0747262 1.034304 1.0844634
000030 19 f1 8a 3f 3b 53 87 3f 33 79 80 3f 1a 4e 83 3f
       1.0854827 1.0572275 1.0036987 1.025821

batchnorm1.bias f4 [16]
000000 27 37 35 bd 70 2a 67 38 56 f4 46 bd ed 9a 8d bd
       -0.04424205 5.5114215e-05 -0.04857286 -0.069143154
000010 34 7e d9 bc 6e b4 a7 bd 49 74 c1 bc 8e c2 17 ba
       -0.026549436 -0.08188711 -0.02361502 -0.0005789184
000020 a2 66 7c bd 6c 0b 94 bd 08 e8 ce bc 1d 78 88 bd
       -0.061621316 -0.07228741 -0.025257125 -0.06663535
000030 3a 49 b9 bd 5c ec 44 bd 08 da 97 3b 45 af 1a bd
       -0.0904717 -0.048076972 0.0046341456 -0.037764806

batchnorm1.running_mean f4 [16]
000000 03 e0 e6 3a 42 ea 5b ba 12 27 42 39 aa ec 0e 3b
       0.0017614368 -0.0008389094 0.00018515837 0.0021808543
000010 de 51 55 b9 a7 ed 53 3a 78 9e 35 3a 56 04 e9 3b
       -0.00020343761 0.0008084424 0.0006928216 0.0071111126
000020 07 d1 09 3a d6 6a 7f 3a 70 29 fb ba 61 a1 9b 3b
       0.0005257283 0.0009743398 -0.001916213 0.0047494625
000030 98 6b cd 3a 7c a4 41 b9 db aa 96 3b c3 bf ce bb
       0.0015672324 -0.0001846719 0.0045980043 -0.006309481

batchnorm1.running_var f4 [16]
000000 a3 d7 91 3e ad e4 1a 3e 0b 5d c3 3d 02 04 75 3e
       0.2848483 0.15126295 0.09539231 0.2392731
000010 0a e0 27 3e d4 c7 d1 3e 01 eb 12 3e 21 23 c9 3f
       0.16394058 0.4097277 0.1434746 1.5713845
000020 11 87 85 3e 62 9f 81 3e b6 dd ed 3e 54 fe ad 3f
       0.2607961 0.25316912 0.46458215 1.359324
000030 30 a8 7c 3e 98 7c 95 3e fe dd c3 3e 8b ab 5d 3f
       0.24673533 0.2919662 0.38255304 0.8658988

depthwise.weight f4 [32, 1, 4, 1]
000000 fb 7c 47 bd 5d b6 c5 3e 41 fa 58 bc 49 8b ab bd
       -0.048703175 0.38615695 -0.013243259 -0.08376176
000010 ea 41 e5 3e ec 7a 98 3e 80 43 1f 3e f1 4f c2 be
       0.4477685 0.29781282 0.15553093 -0.37951615
000020 5b 8e 4d be b5 4d 58 be b8 28 5a bd 24 a4 2a bd
       -0.20073836 -0.21123393 -0.05326149 -0.041660443
000030 44 a7 ad bd 8f 8b 78 3d 57 f8 5d 3e 07 e8 f2 bd
       -0.08479169 0.06067997 0.21676765 -0.11860662
000040 43 96 b3 3d da 90 02 bf 3a c6 94 3e 49 25 f8 3d
       0.087688945 -0.51002276 0.29057485 0.121164866
000050 2c a6 da be 18 86 dc be f9 05 3f 3e 48 a0 29 3e
       -0.42704904 -0.43071055 0.18654622 0.16565049
000060 02 e3 8c be 55 92 3a 3d f9 9d fc bd 98 6d b6 3e
       -0.27516943 0.04554971 -0.123348184 0.35630488
000070 0e ac 89 3d a1 bf 2f 3e 19 41 87 be 76 27 e4 3c
       0.0672227 0.17162944 -0.26416853 0.027850848
000080 ef 9b da 3e e8 a0 92 be 22 aa f5 3e c8 d8 d6 be
       0.42697093 -0.28638387 0.47981364 -0.41962266
000090 48 64 7e 3c ea 77 a1 3d 0b ef af be 17 a7 89 be
       0.015526839 0.078842 -0.34362063 -0.26885292
0000a0 e0 2c bc 3e b7 51 43 be 89 47 eb bd c2 a7 5c bd
       0.36752987 -0.1907414 -0.114882536 -0.053870924
0000b0 53 b0 f2 be 83 fb db 3e 00 ca 9b be 50 db af 3e
       -0.4740015 0.42965326 -0.3042755 0.3434701
0000c0 d9 c3 fe be 64 c6 aa 3e 50 ca b5 bd 63 a7 8b bd
       -0.49758795 0.33354485 -0.08876479 -0.06819036
0000d0 31 86 d8 be 6c 66 e8 be b5 66 f2 3e 69 e5 c7 3e
       -0.4228988 -0.45390642 0.47343984 0.39042214
0000e0 1e 40 a6 3e da 53 c5 3e 54 87 cb be af e5 9c be
       0.32470793 0.38540536 -0.39751685 -0.30643985
0000f0 88 33 e1 3e bf 35 76 be f0 99 2f be 0a a4 d8 bc
       0.43984628 -0.2404394 -0.17148566 -0.026445407
000100 d5 57 9c 3e cd 68 c5 3d 18 84 05 3f b0 8c da be
       0.3053576 0.0963913 0.52154684 -0.4268546
000110 3a 53 74 3e d7 3a 24 be 9d dd d4 be 13 c4 56 be
       0.23859873 -0.1603807 -0.41575328 -0.20973234
000120 af fb 69 3e 4c 6d 3f 3a 1b aa df 3e bd 2b 8e bd
       0.22849916 0.0007302358 0.43684468 -0.06941936
000130 09 96 28 3e 29 ee ae 3e 1a 46 e7 3e 07 9a a0 3e
       0.16463484 0.34166077 0.4517067 0.31367514
000140 91 9b 94 bd 2e 74 58 3e 97 02 28 be c2 35 e9 be
       -0.072562344 0.21138069 -0.16407238 -0.45548826
000150 a2 4a 91 be ca 2b 76 be cf 14 08 be 28 8b a7 3e
       -0.28377253 -0.24040142 -0.13289188 0.32723355
000160 7b 56 83 bd 1b 18 13 3e 9d 3d e6 be 60 4d f0 bc
       -0.06412979 0.14364664 -0.44968882 -0.02933377
000170 b1 3f 82 3e 4d 1a 46 bd 69 6f 2d 3e 16 33 c1 be
       0.25439218 -0.048364926 0.16937031 -0.37734288
000180 63 8a 5a bd b2 b1 91 3e 7c 53 f8 be 11 ae b1 3e
       -0.053354632 0.28455883 -0.48501194 0.34703115
000190 62 29 9e 3e c8 17 c4 be 45 5d 36 be 3f 17 00 3f
       0.30890948 -0.38299394 -0.17809017 0.5003547
0001a0 90 29 61 be 0e 4d cf 3e d4 5c 0a be 3f 0a a0 be
       -0.21988511 0.40488476 -0.13511974 -0.31257817
0001b0 8f f2 d4 be a7 76 4b be 4e 4b fe 3d 7f e1 dc 3d
       -0.41591308 -0.19869481 0.12416707 0.107851975
0001c0 bf 49 7a 3e 00 b1 bb 3e d3 fa d7 bd a0 6a a8 be
       0.24442194 0.36658478 -0.10545888 -0.32893848
0001d0 70 d1 02 3f 00 9b bc be aa 2c 63 3e a1 53 65 3e
       0.51100826 -0.36837006 0.22185007 0.22395183
0001e0 65 fe 98 3e 69 6c 9f 3e 19 99 c9 bd e4 de ff be
       0.29881588 0.31137398 -0.09843654 -0.4997474
0001f0 08 de d2 bd c9 5d 02 3f 56 e5 84 be 51 75 0a be
       -0.10296255 0.50924355 -0.2595622 -0.13521315

batchnorm2.weight f4 [32]
000000 27 2c 7e 3f 18 54 7c 3f 70 27 7e 3f 64 73 72 3f
       0.9928612 0.98565817 0.99278927 0.9470732
000010 e9 18 83 3f de ef 7a 3f cd f6 8e 3f 41 aa 8e 3f
       1.0241977 0.9802226 1.1169068 1.1145707
000020 bd 73 77 3f dc 87 7c 3f 59 87 7f 3f 4e e8 94 3f
       0.9666098 0.98644805 0.998159 1.1633394
000030 19 62 7c 3f b5 74 7c 3f 35 0a 8c 3f 51 f4 87 3f
       0.98587185 0.9861558 1.0940615 1.0621434
000040 b1 09 80 3f 2d 1a 81 3f 5b 95 7e 3f 47 76 7f 3f
       1.0002958 1.0086113 0.9944665 0.9978985
000050 bd 25 7a 3f c2 76 80 3f 59 0a 74 3f e6 de 80 3f
       0.97713834 1.0036242 0.9532829 1.0068023
000060 e2 b2 79 3f c9 01 80 3f a0 93 73 3f 1b e5 72 3f
       0.9753858 1.0000545 0.9514713 0.9488084
000070 36 82 6f 3f b2 5b 6f 3f 56 d6 7e 3f 2d e0 88 3f
       0.9355806 0.9349929 0.995458 1.0693413

batchnorm2.bias f4 [32]
000000 76 07 17 3d 8d 9c 18 3b 50 92 01 3d 84 d8 29 3d
       0.03687235 0.002328667 0.031633675 0.04146625
000010 04 38 41 3d f0 a5 19 bb ab f7 8b 3c 78 ba 8d bc
       0.04717256 -0.0023444854 0.01708587 -0.01730083
000020 8b b9 62 3c 7e c5 27 bd ae 3e 62 3d c0 cd 65 bd
       0.013838182 -0.040959828 0.055235557 -0.05610442
000030 13 c2 42 3b 6a 9e f9 3c 05 05 87 bc 1d b6 9e bc
       0.0029717728 0.030471046 -0.016481886 -0.019373948
000040 25 8f d2 3c ea 28 14 3d cb 73 3d bc bb 50 2c bd
       0.025703022 0.03617183 -0.011563252 -0.042069178
000050 9e 4a a0 3c f7 2a b9 3c c4 03 3e 3c 39 b4 65 3d
       0.01956683 0.022603495 0.0115975775 0.056080077
000060 9a fb 2e bd 06 a0 0e bd 08 24 c7 bb a1 a0 e6 bc
       -0.042720415 -0.03482058 -0.0060772933 -0.028152766
000070 11 da ab bc 21 46 ff bc 78 b6 48 3d f7 86 28 3b
       -0.020978006 -0.03116137 0.04900214 0.002571521

batchnorm2.running_mean f4 [32]
000000 a4 89 f8 3c 8f fb 86 3d 82 71 92 bd 93 b2 2d 3c
       0.03033907 0.0659095 -0.07150556 0.010601657
000010 e4 57 29 ba cd 7a 32 bd 39 15 2d 38 61 51 0c 3a
       -0.0006459935 -0.043574143 4.126618e-05 0.00053527026
000020 69 d8 c9 3c 28 90 80 bd 6c 1f 5a 39 9b 79 2a ba
       0.024639325 -0.062774956 0.00020801806 -0.0006503106
000030 7c ee 0a bd bd 2e c9 ba 1e f0 59 b9 66 4c 44 39
       -0.033918843 -0.0015349012 -0.00020784183 0.00018720477
000040 ab 92 59 3d 89 44 73 bd a5 47 85 3d d4 24 0e 3e
       0.05311839 -0.059391532 0.06507806 0.13881236
000050 24 71 59 bd 3e 37 14 bd 12 39 5a bd 6d b7 b2 b9
       -0.053086415 -0.036185496 -0.053277083 -0.00034087469
000060 9f 41 11 3c 18 d3 c7 3c 1e 87 db bc fe d1 1d bd
       0.008865743 0.02439265 -0.026797827 -0.038530342
000070 1d 9f ea 3c 33 48 c7 3d c5 56 95 3a bd 98 77 3a
       0.028640324 0.09730568 0.0011393657 0.0009445062

batchnorm2.running_var f4 [32]
000000 08 21 eb 3c 21 32 09 3e 6c 0a 17 3e 5a 2e 65 3b
       0.028702274 0.13398029 0.1475007 0.0034970255
000010 bf a9 93 3a c4 72 25 3e 13 07 c9 39 15 3b 3d 39
       0.0011265798 0.16157061 0.00038342978 0.00018046454
000020 d2 0b bd 3c ed a6 19 3e c3 20 a3 39 95 d5 f6 39
       0.023076925 0.15005083 0.00031114192 0.00047079907
000030 dc cf 94 3d bf 61 5d 3b 1f 30 5b 39 de 15 c3 38
       0.072662085 0.0033780185 0.00020903394 9.302398e-05
000040 06 4f 0a 3e 2d 4d 30 3e 6f b3 4a 3e 88 47 66 3f
       0.13506708 0.1721694 0.19795011 0.899529
000050 39 cb 17 3e 3f 5a 8e 3d fe 67 af 3d 91 b3 da 38
       0.14823617 0.06950807 0.08564757 0.00010428497
000060 62 02 9f 3b c8 14 08 3d c0 27 46 3d c8 16 cd 3d
       0.004852579 0.033222944 0.048377752 0.10014111
000070 fb 9a 67 3c 91 4b 1d 3e 60 ac 02 3a 28 2f 67 39
       0.014136071 0.15360858 0.00049847923 0.00022047444

separable.weight f4 [32, 32, 1, 16]
000000 1d a9 a5 bc f5 52 67 3c 96 9e 1f bc 78 84 06 3d
       -0.020222241 0.0141189 -0.0097424 0.032841176
000010 f0 76 d3 bb 87 ee d1 3c 42 b9 94 3c 32 45 fc bc
       -0.0064533874 0.025626434 0.018154744 -0.030794714
000020 00 91 ec 3c aa 98 59 bd 76 a0 97 bb 9c d6 d9 3b
       0.028877735 -0.053124107 -0.0046272827 0.006647898
000030 81 5e a0 bc 9d 94 1d 3c 0c 60 46 3c 39 3d 21 3c
       -0.019576313 0.009617952 0.01210786 0.009841257
000040 66 38 31 3c 11 bf 89 bc c6 c5 3b bc f4 2a 13 3b
       0.010816669 -0.01681474 -0.011460727 0.0022456022
000050 d5 d7 0a bd a8 c4 fd bc 8c bf 78 3c c8 1d 16 3b
       -0.03389724 -0.030977562 0.015182387 0.0022905935
000060 40 6a 03 3d d4 42 8d bc cb 31 52 bc 8d 36 e1 bc
       0.03208375 -0.01724378 -0.012829254 -0.027491832
000070 d0 ec 19 3c 72 6b 97 bc 60 1a e6 3c c2 eb f1 3b
       0.009394839 -0.018483851 0.028088748 0.007382841
000080 bc 54 45 3d a4 23 db 3c ed 04 f0 3c 85 4d 1d 3d
       0.048176512 0.026750393 0.029299224 0.038404007
000090 9d 54 c4 3b 1e 5b ce bc c2 e5 1c 3c 9f 16 c5 3c
       0.005991532 -0.025189932 0.009576263 0.024058638
0000a0 cf b8 14 3c 1b be ea 3b 64 20 fe 3c 69 e3 cb 3c
       0.009077265 0.0071637756 0.031021304 0.024888711
0000b0 52 cc e8 bc a6 1d 19 bd 3e 91 a0 3c 27 cb 3b 3d
       -0.02841774 -0.03738179 0.019600507 0.045848038
0000c0 ac 3c af 3c 8d 2c d3 bb 25 3c 34 3c 81 29 ce 3c
       0.021391235 -0.00644452 0.011000668 0.025166275
0000d0 59 11 cb bc 26 1b b0 bc 24 9d 86 3c cb e4 9f bc
       -0.024788545 -0.02149732 0.016432352 -0.019518277
0000e0 6b 46 72 3d 33 89 fc 3b a3 c6 94 3b a4 f6 3e 3c
       0.059149187 0.007706785 0.004540281 0.011655483
0000f0 b8 33 23 bb 2a f2 4a bb 26 bd 52 bc 88 16 5c 3c
       -0.0024902653 -0.0030967095 -0.012862479 0.013433106
000100 58 83 50 3d 66 f7 01 bd 4a 56 05 bd e0 fa c8 bc
       0.05090651 -0.03173008 -0.032552995 -0.024533689
000110 99 c3 3c bc 58 31 65 3c e0 bc 7c bb 5a 33 94 bc
       -0.0115212435 0.013988815 -0.0038564727 -0.018090893
000120 6d 4f 0e bd f4 d2 d3 3c c3 f0 21 3c 45 b8 88 3c
       -0.034743715 0.025857426 0.009884062 0.016689429
000130 67 a5 44 3d 1d ed 6b 3d 37 61 d8 3c 92 13 3c 3d
       0.048009302 0.057599176 0.026413543 0.0459171
000140 66 ea 4a 3c 8f 2a c5 3c 43 f3 0d 3d d4 9a a1 3c
       0.0123849865 0.024068145 0.03465582 0.019727148
000150 eb 2c 04 3d 80 cf 9d bc a6 85 76 bc ed 6c b2 3c
       0.0322694 -0.019263983 -0.015046513 0.021780455
000160 54 22 24 3d 3c 57 54 3c 01 36 09 3d 5d 53 36 3d
       0.0400718 0.012960251 0.033498768 0.044513095
000170 15 cf bd 3c 24 c0 ed 3b 2c 4b 56 ba ca 47 8a 3c
       0.023170033 0.007255571 -0.00081746536 0.016879935
000180 30 d9 48 3d 6f b3 4b 3c 4f cf 8e 3b 0b 4f b1 3c
       0.04903525 0.012432917 0.004358209 0.021644136
000190 f8 23 81 3d e2 44 57 3d 8b 83 0d 3d e0 d5 33 3d
       0.063056886 0.052555926 0.034549277 0.04390514
0001a0 19 da 36 3d e7 33 05 3c 72 cd 8a bc c3 db 6e 3c
       0.044641588 0.00813005 -0.016943667 0.014578762
0001b0 91 a4 43 3d 27 0f 79 b9 d7 1d 32 3d 3d d6 a5 3b
       0.047764365 -0.00023752135 0.04348549 0.0050609396
0001c0 61 fa d1 3d 09 3b 0f 3d 1c b2 84 bb e0 d5 a5 3d
       0.10252834 0.03496841 -0.0040495526 0.08097434
0001d0 a9 27 06 3d 60 94 35 3d fc 2b ed ba c8 78 fe 3b
       0.032752667 0.044330955 -0.0018094773 0.007765863
0001e0 29 c4 90 3d c4 70 8b 3c 8a 48 11 bb d3 c2 31 3d
       0.070686646 0.017021544 -0.002216848 0.04339869
0001f0 ca a1 9e 3d f1 e3 86 3d e4 f7 ee bb bb 44 1a 3d
       0.077457026 0.06586445 -0.0072927345 0.037663203
000200 f5 6e 95 bb 2c 69 e3 bc af 19 15 bc a6 ea 26 bd
       -0.0045603462 -0.02776011 -0.009100362 -0.040751122
000210 a0 a3 24 3d 8e 46 51 3d cd 67 e3 3c 7f 14 27 3d
       0.040195107 0.051092677 0.027759457 0.04079103
000220 31 e1 00 3b 6d 4a 7d bb 3c f9 da 3c 16 b1 cd bc
       0.0019665475 -0.0038649098 0.026730172 -0.025108855
000230 ba 21 c3 bc e9 23 96 bc cc 83 12 bd ff a1 81 3c
       -0.023819793 -0.01832767 -0.035770223 0.015824316
000240 29 05 2a bc e4 a3 a8 bb bd 01 8b 3d 47 5a 55 3d
       -0.010377207 -0.0051464904 0.06787441 0.05208805
000250 65 4f 40 bd a4 a3 9c bc 87 1b ed 3c cd 46 c0 3c
       -0.046950717 -0.019120999 0.02894379 0.02347126
000260 1d 2c 43 bb 27 56 04 3c 29 c1 05 bd c5 be 99 bc
       -0.0029780932 0.008077181 -0.032654915 -0.018767724
000270 4e 61 34 3c 7b 23 35 bc 5c cf 79 3d 70 18 cd 3c
       0.011009527 -0.0110558225 0.06098877 0.025036067
000280 d0 fb 83 3d 78 f5 66 3c 09 24 0e 3b b7 5e 33 3d
       0.06444514 0.01409661 0.002168896 0.0437915
000290 64 d9 3c 3c 72 62 91 bc 01 ad f1 3c b4 bd 6a bc
       0.011526439 -0.017747138 0.02950144 -0.014327455
0002a0 c5 1e 6e bc 48 ae 99 bc a3 61 0b bc 59 40 92 bc
       -0.014533703 -0.018759862 -0.008507165 -0.017852949
0002b0 55 e4 40 3d 11 5c 9e bc bd c6 c3 3c b1 93 21 bc
       0.047092754 -0.01933101 0.023898477 -0.0098618725
0002c0 f1 04 18 3d 94 f0 3d 3d 46 a0 7a 3c f7 39 f0 3c
       0.037114087 0.04637201 0.015297001 0.029324515
0002d0 fb df a2 3d de 81 91 3d 7b 9e 99 3d 41 3a 5d 3d
       0.07952877 0.07104848 0.07500931 0.054010633
0002e0 bc 88 00 3d dc 24 f6 3d bb e1 d7 3d 45 9e 7f 3d
       0.0313804 0.12018749 0.105411015 0.062406797
0002f0 73 b4 c2 3c 2e 9e e1 3c ec bb 24 3d 72 39 be 3d
       0.023767686 0.027541246 0.04021828 0.092883006
000300 a6 44 cc bc d3 5f 77 bc b3 3d d8 bc e9 05 4b bd
       -0.024935078 -0.01509853 -0.026396608 -0.049566183
000310 a1 ab 52 bd 3e 5f 82 3c 4d 01 49 bc d4 71 de bc
       -0.05143321 0.015914556 -0.012268377 -0.027153887
000320 ca f5 f7 bb ac 06 8c bd 23 15 8b 3c 04 13 c3 bc
       -0.007567142 -0.0683721 0.016977852 -0.023812778
000330 9c 70 82 3b 5b fc fa 3c dd a5 9d bb b1 4c 97 3b
       0.0039807092 0.03063791 -0.004811032 0.0046172966
000340 2a f5 9a 3c 8c d2 16 3d fa 55 5f 3d 14 95 c0 ba
       0.018915731 0.036821887 0.054525353 -0.0014692866
000350 bb f3 15 bc 56 d7 d6 3b 9e 26 59 bd 32 2d 59 bd
       -0.009152348 0.0065564318 -0.053015344 -0.053021617
000360 9a 31 72 ba 14 d9 72 bb f9 64 d5 3b 39 8b a5 3c
       -0.00092389586 -0.0037055658 0.006512281 0.020207988
000370 b6 6b 01 bc eb 09 3a 3c e4 0c ce 3b c3 8d 8a bc
       -0.007899215 0.011354904 0.006288158 -0.0169133
000380 bc be 69 3d ef c9 4f 3d cf 58 91 3d 8b e3 a5 3c
       0.057066664 0.05072969 0.07097017 0.020250103
000390 cc 8a 3f bc b5 89 98 3d b8 ff 7b 3d 19 56 0b 3d
       -0.011690807 0.074481405 0.06152317 0.034017656
0003a0 c1 8a 9c bc 7b 22 a3 bb 2a a8 d3 bc 8b 53 88 3c
       -0.019109132 -0.0049784756 -0.025837023 0.016641399
0003b0 c3 1e dc 3c 58 bc 6a bc 60 f4 52 3c 4b 65 12 bc
       0.026870137 -0.014327131 0.012875646 -0.008935283
0003c0 69 13 96 3c 0a ab de 3c 39 c4 93 3c f7 06 34 3d
       0.018319802 0.027181167 0.018037902 0.043951955
0003d0 9f 31 14 3c 3f 0a 1c bc 9d 99 43 3c dc 69 0c 3c
       0.009045034 -0.009523927 0.01193848 0.008570161
0003e0 f0 15 1b 3c 23 87 95 bc bc 98 2d 3d e2 e4 4a 3d
       0.0094656795 -0.018252915 0.042381987 0.049534686
0003f0 f1 cf 50 3d b0 1f 06 3c b5 97 9e 3c 1c b4 f6 3b
       0.05097956 0.008186266 0.019359449 0.007528795

batchnorm3.weight f4 [32]
000000 0b 61 93 3f 46 d8 91 3f b0 cf 7e 3f 72 a3 91 3f
       1.151399 1.1394126 0.99535656 1.1378005
000010 20 d3 92 3f fd 8b 91 3f c2 3c 87 3f 88 64 92 3f
       1.147068 1.1370846 1.0565417 1.143693
000020 30 5b 94 3f 13 cf 81 3f 39 0c 89 3f 4f 66 90 3f
       1.1590328 1.0141319 1.0706855 1.1281222
000030 8b 28 93 3f 67 6f 8f 3f a5 50 95 3f 9e 74 93 3f
       1.1496748 1.1205872 1.1665236 1.1519964
000040 90 b5 92 3f 92 f1 97 3f 69 19 95 3f 1b 3d 7b 3f
       1.1461658 1.1870596 1.164838 0.98140115
000050 82 da 91 3f dc 80 8c 3f 89 2a 92 3f b1 64 8d 3f
       1.1394808 1.0976825 1.1419231 1.1046354
000060 a6 68 86 3f 10 87 8a 3f 56 4c 93 3f 06 14 89 3f
       1.0500686 1.0822468 1.1507671 1.0709236
000070 01 ab 93 3f 90 6b 86 3f c0 76 90 3f 34 74 93 3f
       1.1536561 1.0501575 1.128624 1.1519837

batchnorm3.bias f4 [32]
000000 72 46 d0 3d 40 85 b9 3d 54 76 9b bd 75 c4 e4 3d
       0.101696864 0.090586185 -0.07590929 0.11170284
000010 df 56 bd 3d 10 61 be 3d 78 28 35 bd e8 3b c2 3d
       0.09245085 0.09295857 -0.044228047 0.094840825
000020 7d ff c7 3d 3c bf 9a bd 1d 78 1d bb 0c 06 62 3c
       0.097655274 -0.07556006 -0.0024027892 0.013795387
000030 77 ad d9 3d 8c 8d b3 3d 28 b7 f7 3d 14 04 c2 3d
       0.10628789 0.08767232 0.12095481 0.09473434
000040 de 9d d5 3d ef ae d8 3d d0 7b cf 3d d4 bc 99 bd
       0.104305014 0.10580241 0.10131037 -0.07506719
000050 93 e8 c4 3d 6f 38 5d 3d 7a d1 16 3d 08 61 a1 3d
       0.096146725 0.054008897 0.036820866 0.07879835
000060 62 74 c9 3c 99 dd 17 bb 52 0c cb 3d 7f 43 1b bd
       0.024591628 -0.0023172854 0.09914459 -0.037906166
000070 2f 05 dc 3d 15 1c 9d bc b1 55 c2 3d 5b f3 b3 3d
       0.10743176 -0.01917843 0.094890006 0.08786651

batchnorm3.running_mean f4 [32]
000000 74 ca 06 3f 0e 4d df 3e 4b 8b b2 be 91 38 fc 3e
       0.5265267 0.43613476 -0.34871897 0.49261907
000010 71 c6 82 3e 07 ba 5d 3e ad e2 b8 bd 66 ad 20 3f
       0.25542024 0.21652995 -0.0902761 0.62764585
000020 7b d3 a2 3e b5 8a d2 be 01 e9 94 be 0a 3c c3 3e
       0.31801972 -0.4112145 -0.29084018 0.38131744
000030 10 fc dd 3c 3b 73 86 3e 20 db 2b 3e 2b cb c2 3e
       0.027097732 0.2625979 0.16782808 0.3804563
000040 20 8c de 3e c5 f5 01 3f 9e 50 ef 3e 0f 10 f2 be
       0.43466282 0.5076564 0.46741194 -0.47277877
000050 fa 21 3c 3d 77 03 66 be 5a a3 f4 3d 80 0c ad 3e
       0.04593084 -0.22462259 0.11945219 0.337986
000060 94 14 4e 3d 29 89 08 bf 66 7d 71 3e 14 30 2c bf
       0.050312594 -0.5333429 0.23582992 -0.6726086
000070 05 b7 80 3e 6d 38 d0 be 7d a0 94 3e 0a 11 bb 3e
       0.25139633 -0.4066805 0.29028693 0.36536437

batchnorm3.running_var f4 [32]
000000 ab 64 1e 3f 7c 87 34 3f ac ba 62 3f 1b 4a 7a 3f
       0.6187236 0.7051923 0.8856609 0.97769326
000010 15 56 0e 3f ad 91 14 3f 59 73 16 3f 43 26 51 3f
       0.556001 0.58034784 0.58769757 0.8169901
000020 f8 c2 15 3f d0 03 2c 3f 63 55 e8 3e da 4c 43 3f
       0.58500624 0.6719332 0.45377645 0.7628914
000030 0d 64 33 3f 2b 1f 29 3f 13 2b 5d 3f 4d ea 1d 3f
       0.7007454 0.66063184 0.8639385 0.6168564
000040 fa 62 23 3f a0 b0 30 3f 61 09 48 3f a1 05 9b 3f
       0.638229 0.6901951 0.7813931 1.2111093
000050 6e e1 25 3f 9f 65 1d 3f ae 1c 2c 3f b2 8f 08 3f
       0.64797103 0.61483186 0.6723126 0.5334426
000060 6c dd fd 3e 96 ae e5 3e 52 d5 fb 3e 07 dd a1 3f
       0.49582994 0.4485976 0.49186188 1.2645577
000070 d0 ee 0e 3f 19 ee 39 3f 1f 62 2d 3f 75 03 07 3f
       0.5583315 0.72628933 0.67727846 0.5273965

fc1.weight f4 [1, 224]
000000 bd f1 c2 3c a1 2c 9f 3d ee 03 ea 3c 03 ee 7d 3d
       0.02379691 0.07772184 0.028566327 0.061994564
000010 2f 7f 37 3e 79 4a 28 3d ac 1a 11 3d fb ad f3 3d
       0.1791961 0.041086648 0.035425827 0.118984185
000020 c9 b6 cc 3d 66 57 b5 3d 60 41 d6 3d ca 3b bc 3b
       0.09995801 0.088545606 0.10461688 0.005744432
000030 1c 5f 79 3d 9d ad ac 3d a0 e1 91 bc ca f2 5e bc
       0.06088172 0.084315516 -0.017807782 -0.01360769
000040 f4 c9 a8 bb ec f3 c0 3a b8 c3 89 bb 09 1d 9f bd
       -0.005151028 0.0014721132 -0.0042042397 -0.0776921
000050 0e bb 1d bd f0 ff 08 bd d1 03 6d 3c 29 01 68 3d
       -0.038508467 -0.033447206 0.014466242 0.05664173
000060 e8 df b1 3d d6 91 01 3e c1 76 18 3e c3 28 e5 3d
       0.08685285 0.12653288 0.14889051 0.11189415
000070 53 d5 0b 3e ff 73 d6 3d 04 b7 99 3d a9 b4 ee bc
       0.13655595 0.10471343 0.075056106 -0.02913888
000080 30 3b 35 3d a5 db 10 3e 07 43 89 3d f2 66 08 3e
       0.0442459 0.14146288 0.067022376 0.1332052
000090 7c 6c bd 3d 82 28 b9 3d 11 07 19 3e 0c df 9f 3d
       0.092492074 0.090409294 0.14944102 0.07806215
0000a0 38 47 c9 3d 08 29 0c bd 24 8b ea bc fb ac e1 bc
       0.09828037 -0.034218818 -0.0286308 -0.027548304
0000b0 e4 28 8b bd 57 63 83 bd 35 2e 83 bd d2 70 ba 3b
       -0.06794909 -0.06415432 -0.06405298 0.0056897188
0000c0 84 26 23 3e 7d d3 d1 3c a2 a5 a4 3d 4f a9 cd 3d
       0.15932661 0.02561354 0.080394045 0.10042059
0000d0 c4 29 36 3e 1c 28 bf 3d 9d 36 df 3d 89 22 3c bd
       0.1778937 0.09333822 0.108990885 -0.045931373
0000e0 3d bd 7b 3d 83 2f 3a 3d 91 7a 99 3c cd 62 ad 3d
       0.06145977 0.045455467 0.018735202 0.084661104
0000f0 4d 09 bc 3d 9b 80 ec 3c a5 ad 11 3e 69 99 96 bd
       0.091814615 0.028869918 0.14226396 -0.073534794
000100 11 a1 ff 3c 65 c5 82 bd 81 7a d3 bd 92 09 b7 bd
       0.031204732 -0.06385306 -0.103261 -0.08937372
000110 a9 3e b9 bd d1 6f a5 3d 6a 1c d1 3d 26 5d d2 bc
       -0.090451546 0.08077968 0.10210498 -0.025679182
000120 92 e5 e4 bc c1 34 d4 3d 1f 36 aa bd 14 f1 a1 bd
       -0.027941499 0.103616245 -0.08311104 -0.0790731
000130 51 6f ef bb e2 11 11 bc d4 05 af 3c 5a 29 c0 3c
       -0.007306971 -0.008854361 0.021365084 0.023457218
000140 fc 91 b9 3d d6 f6 10 3e f1 98 22 3c 5e 23 d6 bd
       0.090610474 0.1415666 0.009924159 -0.104559645
000150 d9 d7 f1 3d 4e a7 24 3e 7b 6d 01 3e fa 7b d5 3d
       0.11808748 0.16079447 0.1263942 0.10424037
000160 0e f0 ac 3c ed 3d 98 bc 91 ea 73 bd 19 86 e6 3d
       0.02111056 -0.018584216 -0.05954987 0.11256046
000170 36 ad 06 3e 99 fa bc 3d 8a 57 93 3d 75 6b 01 3c
       0.13152012 0.09227485 0.07194431 0.007899155
000180 e5 5f fa 3d dc 2e d9 3d 99 83 07 3c 0b 33 1e 3b
       0.12225322 0.10604641 0.008271121 0.002413931
000190 0d c9 73 bc 5d 78 ce 3c 1d 41 8d 3d 6c fa 4a 3e
       -0.014879477 0.025203878 0.06897185 0.19822091
0001a0 13 34 1b 3e 27 98 09 3c c8 58 05 3e 33 55 84 bb
       0.15156583 0.008398092 0.13022149 -0.004038477
0001b0 e7 22 04 3e fa 00 df 3d f1 86 08 3d 63 63 38 3d
       0.12903939 0.10888858 0.033331815 0.045016658
0001c0 dd 2c a4 bd f5 82 89 3c 08 2d 02 3e b0 83 07 3e
       -0.080163695 0.016786078 0.1271249 0.13233829
0001d0 79 41 ef 3d 31 89 2f 3d 98 9c 77 3d f8 62 98 bb
       0.1168241 0.042855445 0.060452074 -0.00465047
0001e0 1a e9 08 3e e3 b7 02 3d cf 32 4f 3d 3d ac 06 3d
       0.13370171 0.03191365 0.050585564 0.032879103
0001f0 57 bd d5 3d 79 cc 2d 3e 94 2d 9d bd e8 86 c5 3c
       0.10436504 0.16972531 -0.07674709 0.02411218
000200 1a 20 21 bc 72 4c 1f 3d 07 f3 82 3d 2c 57 0f 3e
       -0.009834314 0.038891263 0.0639401 0.13998097
000210 22 0e cd 3d 90 5c ff 3c 74 71 c6 bc 3b c4 c1 bc
       0.10012461 0.031172067 -0.02422402 -0.02365314
000220 8b 1a 83 bb 55 10 f4 bb f9 ec d2 bd c7 14 ab bd
       -0.004000967 -0.007448236 -0.10299105 -0.08353572
000230 68 08 0f 3e 29 4c 9e 3d 39 a9 6b 3d 04 6f e5 3d
       0.1396805 0.0772937 0.05753443 0.11202815
000240 a2 6f 97 3d f8 a1 9d bc 1d 2d 4c bd 70 92 fe 3d
       0.07394339 -0.019242272 -0.04984771 0.124302745
000250 df e3 e2 3c 70 5c 40 3d 2b 55 1c 3d 2f 3a 33 bd
       0.027696548 0.046963155 0.03816716 -0.04375666
000260 84 f8 0e bd 39 09 8b bd c0 1d a0 bc 4d fa 2a bc
       -0.03490497 -0.067888685 -0.019545436 -0.010435653
000270 5e d6 a5 bd e5 6e 1a bd 9f b3 0b 3c b2 b1 22 3e
       -0.08097528 -0.037703414 0.008526712 0.15888098
000280 45 1b 2f 3e 3c 89 15 39 e8 bc f3 3d 82 a2 f7 3d
       0.17100246 0.00014260871 0.119012654 0.12091543
000290 fa 96 a4 3d 82 9b 84 bc f0 02 a9 3d 85 f3 74 bd
       0.08036609 -0.016187433 0.082525134 -0.05980255
0002a0 0d 71 4e 3d 1d af 1d bd bb 90 35 3d f1 33 de 3d
       0.050400782 -0.03849708 0.04432748 0.10849751
0002b0 3f 19 1c bd a4 f0 58 3d 8f 0b 1f bd 5a 78 ef 3d
       -0.038110014 0.052963868 -0.038829383 0.11692877
0002c0 4e 98 89 bb 47 da a1 bc 9b de ea bd a9 0e f4 ba
       -0.0041990643 -0.019757403 -0.1146824 -0.0018620092
0002d0 e9 ba 7b bd ab 08 2e 3c c8 ae f1 3d fb ae d2 3d
       -0.06145755 0.010622184 0.11800915 0.10287281
0002e0 03 56 16 3e b9 a3 c1 3d 81 56 16 3d 15 19 dd 3d
       0.14681248 0.09455056 0.03670359 0.107958
0002f0 70 82 24 3d 79 94 b4 3d 16 45 70 bb 76 d5 ba 3d
       0.040163457 0.088173814 -0.0036662272 0.09122746
000300 bd 54 c1 3b 5f 93 a6 bd b2 5a ac bd 04 8f dc bd
       0.005899994 -0.081335776 -0.08415736 -0.107694656
000310 d6 7e a8 3d cd 50 aa 3d 8a 28 62 3d 14 b5 d8 3d
       0.08227317 0.08316193 0.055214442 0.10581413
000320 7d 6f cb 3b 47 ec a8 3d 8f 25 d6 3d 3c f0 2d 3c
       0.006208359 0.08248191 0.104563825 0.010616358
000330 c5 8a 90 3b cf 3f 59 3d a4 f7 aa bd 85 d9 ad bd
       0.004411074 0.05303937 -0.08348015 -0.08488754
000340 e1 bd 92 3c d6 99 87 3c a9 f2 fd 3d f3 d4 a6 3c
       0.017912807 0.016552847 0.123997994 0.020365214
000350 b3 b2 ca bc c5 cb 9f 3d ea d9 18 3e b2 07 86 3d
       -0.024743414 0.07802538 0.14926878 0.065444365
000360 1f 86 6b 3d db 7a d8 bc 09 33 be 3d 8c cc a7 3d
       0.057500955 -0.02642577 0.09287078 0.08193311
000370 50 0e c0 3d 32 4b c5 3c 91 2e b2 3d b1 5e 11 3e
       0.0937773 0.024083707 0.08700288 0.14196278
