focus_eegnet_4ch.pth (torch, 79569 bytes, 16 tensors)

conv1.weight f4 [16, 1, 1, 64]
0.12143876 -0.021244368 0.053421296 -0.032261744 0.10994672 -0.05752912 0.043467 -0.017127573
0.072539054 -0.12417287 -0.01112917 0.07855437 -0.023453387 -0.13436437 0.066547304 -0.105131015
0.045676198 -0.009477157 -0.10739503 -0.04459372 0.07855657 0.09215119 -0.15971191 0.040632512
-0.10041279 -0.058234982 0.036732066 0.11888946 -0.0042839195 0.011298884 0.12965576 -0.020473028
-0.015947662 -0.00043435144 -0.037026994 0.079390004 -0.12217101 -0.096276395 0.1467611 -0.015988322
-0.047521345 0.039918303 -0.012579002 0.09615831 0.033646747 0.086678974 -0.014076067 0.08467082
0.018040502 -0.048688386 0.018997725 0.008512808 -0.12755108 -0.1430824 0.073266834 -0.13538107
0.0070730057 0.05476229 -0.0127098765 -0.06854606 -0.119008064 -0.12231163 0.037383 -0.04440117
-0.12936737 -0.020670794 -0.0996122 -0.015026106 -0.003788644 -0.081225745 0.034973934 0.10249004
0.00526162 -0.042574517 0.10131407 0.13554822 0.025108539 -0.0746035 0.12591657 0.08733909
-0.07886812 -0.03379303 -0.11430308 -0.050836973 -0.06338893 -0.083996035 -0.017134707 0.04464131
0.04298127 -0.121961854 -0.13338287 0.07359495 -0.13447858 0.013067946 -0.077574864 -0.03582605
0.07457928 -0.006850904 -0.08596907 -0.102018334 0.11156292 -0.053690027 -0.03332849 -0.12111012
-0.14161125 0.08296747 -0.123448536 0.103721276 -0.035163198 0.10744814 0.11313542 -0.108404316
0.0015703326 0.10408179 -0.020317951 0.02101478 -0.02658083 -0.0040412145 0.062483497 -0.11389615
-0.060817737 0.11317738 -0.04087405 0.0019315814 -0.0039897067 -0.047631003 -0.03817314 -0.04089504
0.034088053 0.027298313 -0.06477697 0.0082150875 0.13639964 -0.048392363 0.08826353 0.07845838
0.06428379 -0.061731067 -0.011564624 0.057944868 -0.007632172 -0.047200568 0.03446359 0.10630346
-0.015405863 -0.011969907 0.09397349 0.041484106 0.056044515 0.08437167 0.046153735 -0.050730173
-0.098832525 0.017559532 0.10346132 0.11523926 -0.08758861 0.068788014 0.053619497 0.01108708
0.00048388413 0.1087276 -0.101361915 0.035633504 0.039770454 -0.02035308 0.019218808 0.09896277
0.023978082 -0.07889302 0.09048464 -0.049162067 -0.09437773 -0.11004606 -0.14663218 -0.13303922
-0.08071581 -0.09577706 -0.051583316 -0.09476319 -0.05461764 -0.014583826 0.0063962047 0.08414224
0.01781491 0.002068963 0.06811277 -0.1128638 0.0011001746 -0.15291628 -0.11057696 -0.12636907
0.06441915 0.063660644 0.033026174 0.007826036 -0.104575984 -0.06477142 0.028756076 -0.11241925
0.05065407 -0.020156587 0.07702181 -0.05277406 0.003363477 0.08108079 0.004422736 0.053671554
0.075590596 -0.07943627 0.05064328 -0.029144065 -0.022838997 0.063462935 -0.13312435 0.10991098
-0.10751607 0.11636478 -0.10390751 0.10583054 0.0821753 0.04855106 -0.068236515 -0.09387351
0.08568536 0.053363957 0.03205816 -0.0013931628 0.013368757 0.048965603 -0.13177162 0.05803522
-0.123138495 0.04897214 -0.108479664 0.04442278 0.07956638 0.0010755626 0.08513205 0.059402086
0.061753105 0.086419985 -0.05527768 0.051630143 -0.09788509 0.006620396 -0.06900539 -0.08884485
-0.043576155 -0.06266835 -0.0023477238 -0.041651245 0.023958458 0.07139331 -0.06825317 0.120755255
00000000: e2b4 f83d ab08 aebc 4ad0 5a3d e424 04bd
00000010: bf2b e13d a8a3 6bbd 740a 323d 204f 8cbc
00000020: 5b8f 943d 584e febd 1f57 36bc 1de1 a03d
00000030: 5121 c0bc d096 09be f449 883d ee4e d7bd
00000040: f716 3b3d 1446 1bbc edf1 dbbd e8a7 36bd
00000050: 44e2 a03d c3b9 bc3d 858b 23be 476e 263d
00000060: 39a5 cdbd ce87 6ebd 5d74 163d 517c f33d
00000070: 1f60 8cbb f41e 393c 7bc4 043e 0db7 a7bc
00000080: aca4 82bc aab9 e3b9 9ea9 17bd 3a97 a23d
00000090: cb34 fabd 8f2c c5bd 8b48 163e f1f9 82bc
000000a0: bea5 42bd 6081 233d 2918 4ebc a6ee c43d
000000b0: 2cd1 093d bf84 b13d 4e9f 66bc e567 ad3d
000000c0: adc9 933c 796d 47bd 1ea1 9b3c 4e79 0b3c
000000d0: c09c 02be 3184 12be ec0c 963d 56a1 0abe
000000e0: acc4 e73b 6c4e 603d 163d 50bc e061 8cbd
000000f0: 80ba f3bd 857e fabd eb1e 193d 00de 35bd
00000100: e178 04be cc55 a9bc 7b01 ccbd 0e30 76bc
00000110: e64a 78bb af59 a6bd d440 0f3d 4ce6 d13d
00000120: ab69 ac3b 9e62 2ebd c07d cf3d 27cd 0a3e
00000130: 6cb0 cd3c b8c9 98bd 46f0 003e d6de b23d
00000140: 9c85 a1bd 8f6a 0abd bc17 eabd 6e3a 50bd
00000150: 0ed2 81bd 1d06 acbd 165e 8cbc ced9 363d
00000160: 210d 303d 23c7 f9bd 8595 08be f3b8 963d
00000170: c1b4 09be f01a 563c 92df 9ebd 56be 12bd
00000180: 06bd 983d 8c7d e0bb 8d10 b0bd fdee d0bd
00000190: 1a7b e43d 13ea 5bbd 7483 08bd 9508 f8bd
000001a0: 8a02 11be d9ea a93d 96d2 fcbd d26b d43d
000001b0: 4907 10bd c50d dc3d 8bb3 e73d 1503 debd
000001c0: 9ed3 cd3a d528 d53d d571 a6bc 3027 ac3c
000001d0: 0ac0 d9bc 2a6c 84bb b2ee 7f3d 6242 e9bd
000001e0: 051c 79bd 8bc9 e73d 8c6b 27bd 1e2d fd3a
000001f0: 16bc 82bb ba18 43bd 705b 1cbd 8f81 27bd
00000200: ea9f 0b3d b6a0 df3c caa9 84bd 9398 063c
00000210: 59ac 0b3e 1237 46bd 82c3 b43d caae a03d
00000220: 38a7 833d b7d9 7cbd 8c79 3dbc 9957 6d3d
00000230: 4d17 fabb 6255 41bd b129 0d3d a1b5 d93d
00000240: df68 7cbc 6e1d 44bc 2c75 c03d 3deb 293d
00000250: ef8e 653d 0ecb ac3d b30b 3d3d 71ca 4fbd
00000260: b568 cabd 02d9 8f3c 87e3 d33d 9002 ec3d
00000270: a861 b3bd bbe0 8c3d 1ea0 5b3d 96a6 353c
00000280: d4b1 fd39 93ac de3d d696 cfbd 70f4 113d
00000290: 58e6 223d 81bb a6bc c370 9d3c feac ca3d
000002a0: af6d c43c aa92 a1bd 0350 b93d 2a5e 49bd
000002b0: 1c49 c1bd d45f e1bd bf26 16be 6f3b 08be
000002c0: 554e a5bd c326 c4bd 0749 53bd 3413 c2bd
000002d0: bfb6 5fbd 00f1 6ebc 4197 d13b c452 ac3d
000002e0: 93f0 913c 7097 073b b57e 8b3d 2325 e7bd
000002f0: bc33 903a 1696 1cbe 2c76 e2bd e566 01be
00000300: 30ee 833d 8360 823d 7446 073d c638 003c
00000310: ef2b d6bd e1a6 84bd dd91 eb3c 103c e6bd
00000320: a47a 4f3d 6d1f a5bc 9cbd 9d3d 9d29 58bd
00000330: c86d 5c3b af0d a63d 99ec 903b b4d6 5b3d
00000340: 3ecf 9a3d 7caf a2bd 546f 4f3d 89bf eebc
00000350: d918 bbbc dbf8 813d c051 08be 0219 e13d
00000360: 6331 dcbd a850 ee3d 76cd d4bd afbd d83d
00000370: 864b a83d 7add 463d 96bf 8bbd c140 c0bd
00000380: ce7b af3d 2a94 5a3d 6b4f 033d c99a b6ba
00000390: a208 5b3c 2890 483d 24ef 06be 57b6 6d3d
000003a0: 0930 fcbd 0397 483d 962a debd a9f4 353d
000003b0: b3f3 a23d e4f9 8c3a b659 ae3d 9a4f 733d
000003c0: d3f0 7c3d f6fc b03d d96a 62bd 217a 533d
000003d0: fa77 c8bd e8ef d83b b352 8dbd 4af4 b5bd
000003e0: e97c 32bd 4458 80bd 45dc 19bb 7f9a 2abd
000003f0: 8744 c43c a836 923d 51c8 8bbd 884e f73d

batchnorm1.weight f4 [16]
1.0755916 1.0640363 1.1829962 1.0925739 1.0940361 1.1065105 1.1286659 1.155682
1.1565052 1.1124597 1.144857 1.1306936 1.0358949 1.0920075 1.1182431 1.2261112
00000000: fcac 893f 5732 883f 6b6c 973f 76d9 8b3f
00000010: 6009 8c3f 23a2 8d3f 2078 903f 63ed 933f
00000020: 5d08 943f 1465 8e3f ad8a 923f 91ba 903f
00000030: 3498 843f e7c6 8b3f 9722 8f3f 36f1 9c3f

batchnorm1.bias f4 [16]
0.02073959 0.17013204 -0.15795061 -0.10023734 0.014507488 -0.10734565 -0.1217388 0.19578733
-0.20605527 -0.08720342 0.12252754 -0.1100493 0.118231215 -0.18252757 -0.1380269 -0.10772355
00000000: 13e6 a93c 1837 2e3e cebd 21be 3c49 cdbd
00000010: d1b0 6d3c 09d8 dbbd 3152 f9bd 797c 483e
00000020: 2700 53be b597 b2bd b8ef fa3d 8761 e1bd
00000030: 3523 f23d 82e8 3abe ec56 0dbe 2a9e dcbd

batchnorm1.running_mean f4 [16]
-0.0026906247 -0.007717787 -0.004516744 0.001991903 0.00026407107 -0.0001832417 0.00059167354 0.0026148944
-0.0026068075 0.0032120864 -0.005720622 -0.0016778935 -0.0030040224 -0.0025645688 -0.0022881902 -0.0015507641
00000000: 3155 30bb 7de5 fcbb 3201 94bb 968a 023b
00000010: 0573 8a39 9224 40b9 8a1a 1b3a a65e 2b3b
00000020: f9d6 2abb de81 523b 0e74 bbbb c3ec dbba
00000030: 22df 44bb 5312 28bb 76f5 15bb 0243 cbba

batchnorm1.running_var f4 [16]
0.26875538 0.38814238 1.0176347 0.10431356 0.07964341 0.07042512 0.079737365 1.4285533
0.15914421 0.91542006 0.25518844 0.42667776 0.10441246 0.17282008 0.17061858 0.08306234
00000000: 4e9a 893e 99ba c63e db41 823f 59a2 d53d
00000010: 161c a33d 0c3b 903d 584d a33d d6da b63f
00000020: b3f6 223e f858 6a3f 0fa8 823e 8275 da3e
00000030: 33d6 d53d bff7 303e a3b6 2e3e 971c aa3d

depthwise.weight f4 [32, 1, 4, 1]
-0.008105573 0.39501774 -0.28704354 -0.2142178 -0.122546 -0.019434966 0.021142507 0.17729808
-0.17009121 0.008260728 -0.47549933 0.15110698 -0.19629852 -0.28004104 -0.11533669 0.12945278
-0.10805535 -0.13206594 0.23166098 -0.09410908 -0.008856642 -0.10019068 0.4767657 0.28824168
-0.4160052 -0.48216337 0.27121794 -0.40678474 0.35630655 0.08814063 0.13164817 -0.47476986
-0.07011423 0.37085897 -0.0018816403 0.31684086 -0.34053993 -0.0121713 -0.021456923 0.35590813
-0.0272984 0.29007685 0.31989536 0.47163877 0.40217543 -0.29341915 0.27942723 -0.04484133
0.43042916 0.31857514 0.20736888 0.0086849425 -0.17493841 0.48189485 -0.07138916 0.4583983
-0.1898874 0.12378911 -0.17417513 0.17952785 0.05770469 -0.41284633 -0.37424442 0.18737602
0.059318207 -0.42959642 0.2928162 0.4758868 0.20394106 -0.42464247 0.015338545 0.08690098
-0.23498377 -0.14804709 0.2922784 0.08047792 0.083782285 -0.11850971 0.21900557 -0.03916667
0.32164946 -0.08383637 0.08260408 -0.34506086 -0.19677626 -0.07788982 -0.49314216 -0.2079132
0.33925474 0.38095015 -0.056826882 -0.37681225 0.37303457 0.41017765 0.30307287 0.40432343
0.4943397 0.15830414 0.4739601 0.08440017 0.048214737 0.33674318 -0.5111373 -0.47515017
0.38835478 0.006952245 -0.39480686 -0.010976398 0.20360358 -0.019688342 -0.027150115 -0.17873774
-0.040016957 0.46295142 0.5930191 -0.17693701 0.12309764 0.08042087 -0.110629946 0.34256572
0.11844789 0.16312352 -0.38098153 0.113415904 0.4226386 0.19067506 -0.2037246 -0.090127125
00000000: 3dcd 04bc c43f ca3e 5ff7 92be e95b 5bbe
00000010: 66f9 fabd 1436 9fbc 0d33 ad3c a18d 353e
00000020: 642c 2ebe 0158 073c a674 f3be cabb 1a3e
00000030: 7b02 49be 8a61 8fbe a435 ecbd 458f 043e
00000040: 204c ddbd 4b3c 07be 8938 6d3e 43bc c0bd
00000050: 731b 11bc c530 cdbd a21a f43e 6a94 933e
00000060: a2fe d4be 1ede f6be 14dd 8a3e 1746 d0be
00000070: d06d b63e 1383 b43d c7ce 063e 0915 f3be
00000080: 0d98 8fbd 3ae1 bd3e 5fa1 f6ba f738 a23e
00000090: 405b aebe 226a 47bc 6ec6 afbc 9739 b63e
000000a0: e5a0 dfbc f484 943e 53c9 a33e a37a f13e
000000b0: f0e9 cd3e 093b 96be 1611 8f3e 8bab 37bd
000000c0: 3661 dc3e 481c a33e 8258 543e 4a4b 0e3c
000000d0: 0e23 33be ecba f63e 7b34 92bd 2fb3 ea3e
000000e0: d871 42be 2585 fd3d f75a 32be 26d6 373e
000000f0: c15b 6c3d 9860 d3be f79c bfbe 80df 3f3e
00000100: a6f7 723d 10f4 dbbe 01ec 953e 6fa7 f33e
00000110: edd5 503e bd6a d9be 854e 7b3c 24f9 b13d
00000120: 969f 70be a899 17be 84a5 953e 9cd1 a43d
00000130: 0c96 ab3d 38b5 f2bd ff42 603e 3b6d 20bd
00000140: 3daf a43e 67b2 abbd 542c a93d d1ab b0be
00000150: b77f 49be b384 9fbd 217d fcbe 33e7 54be
00000160: ccb2 ad3e e60b c33e 4ec3 68bd 89ed c0be
00000170: 63fe be3e ce02 d23e 5e2c 9b3e 7b03 cf3e
00000180: 181a fd3e 7b1a 223e e6aa f23e ffd9 ac3d
00000190: d17c 453d 9a69 ac3e e5d9 02bf e246 f3be
000001a0: 70d6 c63e a8cf e33b 2024 cabe 5ad6 33bc
000001b0: 757d 503e 7249 a1bc eb69 debc 0707 37be
000001c0: d2e8 23bd f807 ed3e 1ad0 173f fa2e 35be
000001d0: 9e1a fc3d b2b3 a43d f491 e2bd c664 af3e
000001e0: cf94 f23d da09 273e 0310 c3be 9946 e83d
000001f0: 1664 d83e 5340 433e 2e9d 50be 9294 b8bd

batchnorm2.weight f4 [32]
1.0136818 1.0509262 1.0044206 1.0302141 1.1283075 0.9449234 1.0401088 1.0446901
0.9644932 1.1075422 0.985922 0.9911533 1.0094023 1.0061102 1.1574385 1.154152
1.0116466 1.0548486 1.0643758 0.96584827 1.2679622 1.0674235 0.94771814 0.96437967
1.0084752 1.0709662 1.0415525 1.0979688 0.9861463 0.9684272 1.0399296 0.9474103
00000000: 53c0 813f c084 863f db90 803f 0ede 833f
00000010: 616c 903f 80e6 713f 4922 853f 68b8 853f
00000020: 07e9 763f f1c3 8d3f 6265 7c3f 39bc 7d3f
00000030: 1834 813f 38c8 803f f226 943f 41bb 933f
00000040: a37d 813f 4705 873f 773d 883f d541 773f
00000050: 964c a23f 55a1 883f a89d 723f 96e1 763f
00000060: b715 813f 6c15 893f 9851 853f 3e8a 8c3f
00000070: 1574 7c3f d8ea 773f 6a1c 853f 7b89 723f

batchnorm2.bias f4 [32]
-0.048213992 0.00417045 -0.094294205 -0.07307612 -0.034953624 -0.012399781 0.007551457 -0.048846625
-0.016763916 -0.14629823 -0.017295219 -0.0327175 -0.0726914 -0.03999057 -0.10558593 -0.11456
-0.014264453 -0.0099920295 -0.039406285 0.005451263 -0.1922576 -0.13579196 -0.02984039 -0.061789617
-0.063871615 -0.08962443 -0.03782198 -0.12814228 -0.061533496 -0.04135409 -0.03540006 -0.049097996
00000000: 097c 45bd 45a8 883b 521d c1bd efa8 95bd
00000010: 882b 0fbd 7328 4bbc 3672 f73b 6613 48bd
00000020: 7b54 89bc 34cf 15be b4ae 8dbc c902 06bd
00000030: 3bdf 94bd 27cd 23bd 703d d8bd 6f9e eabd
00000040: 74b5 69bc 9cb5 23bc 7c68 21bd 82a0 b23b
00000050: 2ddf 44be 0c0d 0bbe d573 f4bc 1c17 7dbd
00000060: 1fcf 82bd 038d b7bd 38eb 1abd bb37 03be
00000070: 8c0a 7cbd e862 29bd a7ff 10bd fb1a 49bd

batchnorm2.running_mean f4 [32]
-0.017460598 0.0094946595 -0.13819398 -0.1328722 1.9131898e-05 0.001629154 -0.029369969 0.0030609362
0.082814544 -0.003432067 0.040515274 0.014139892 0.028694237 0.01953037 -0.015646167 -0.1659055
-0.011498122 0.0032477335 -0.00071723165 0.0059042866 -0.0055458862 -0.25148183 0.009402947 0.050484784
0.28172708 -0.1383316 -7.9906975e-05 0.00017512833 0.011160905 0.0055985474 -0.00034015538 0.019505393
00000000: 8709 8fbc 7d8f 1b3c b982 0dbe a60f 08be
00000010: 707d a037 5689 d53a 4a99 f0bc fd99 483b
00000020: ac9a a93d 88ec 60bb 58f3 253d 01ab 673c
00000030: 2d10 eb3c 28fe 9f3c 642c 80bc 22e3 29be
00000040: 9e62 3cbc edd7 543b 9a04 3cba bf78 c13b
00000050: 44ba b5bb 3ac2 80be d10e 1a3c 22c9 4e3d
00000060: 883e 903e cda6 0dbe bb93 a7b8 a7a2 3739
00000070: 3adc 363c 0574 b73b e256 b2b9 c6c9 9f3c

batchnorm2.running_var f4 [32]
0.00929616 0.0030831373 0.13130687 0.12152666 0.0066584093 0.29709628 0.741101 0.015436881
0.2430103 0.0076531414 0.63535726 0.073170096 0.5988007 0.30148357 0.0022116534 0.2168912
0.08808544 0.009331672 0.00075317017 0.013613702 0.0028464068 0.5741639 0.051322054 1.3418081
0.76617086 0.19497378 0.0036366486 0.0010788946 0.4343768 0.11238701 0.0038982362 0.07563556
00000000: ec4e 183c 760e 4a3b 4f75 063e f8e2 f83d
00000010: c92e da3b 011d 983e ccb8 3d3f f9ea 7c3c
00000020: b1d7 783e 34c7 fa3b c6a6 223f 34da 953d
00000030: 014b 193f 0e5c 9a3e 63f1 103b ba18 5e3e
00000040: 2466 b43d dfe3 183c 6570 453a 010c 5f3c
00000050: c88a 3a3b 68fc 123f 1337 523d 5ec0 ab3f
00000060: c623 443f 35a7 473e d754 6e3b b269 8d3a
00000070: a366 de3e 292b e63d 8d79 7f3b d1e6 9a3d

separable.weight f4 [32, 32, 1, 16]
-0.010970511 -0.033831652 0.0049320776 -0.0010277376 0.0021756608 0.027926046 0.048770312 -0.029010277
-0.010326754 0.015111861 0.019079344 0.03786672 -0.0042191963 0.054513507 0.049825557 0.042479716
-0.011380076 -0.0031945936 -0.022984598 0.0026887218 -0.045422636 0.006849814 -0.03424577 -0.007803724
-0.04546937 -0.018326236 0.0094630895 0.030965941 0.0054430095 0.023913717 0.0032497484 0.008573873
-0.020722788 0.029699493 -0.00043453253 -0.010919881 0.0046895053 -0.011465253 0.033318207 -0.0026899113
0.03432981 0.032773614 -0.024094794 0.0449403 -0.0008331816 -0.008830992 0.02518191 0.052831646
0.024774168 -0.046861757 -0.022417156 -0.027819043 -0.00021981052 -0.0023219096 -0.03462716 -0.047670994
0.012713949 0.0004898382 0.025341067 0.024476344 -0.013696372 0.016373316 -0.0019857741 0.020732695
-0.020899896 0.018055873 0.0003835532 0.045792338 0.06297449 0.024194868 0.07059024 0.011194228
0.088583715 0.051426817 0.082668915 0.07543408 0.047765628 0.060737353 0.050969798 0.06489818
0.038542908 -0.022252902 -0.010999018 0.02799608 0.019440342 0.029732784 0.026279092 0.037155453
-0.039214354 -0.05186022 -0.04690956 -0.0024383294 -0.008919954 -0.050730057 -0.036641404 -0.022083726
-0.018090306 -0.011806945 -0.05257338 -0.0751755 -0.055172548 -0.020779187 -0.033157356 -0.008727591
0.02636009 -0.028349407 -0.0010404044 0.034225624 0.028772263 0.022065734 -0.02506912 -0.039448783
0.043765802 0.016772652 0.016846618 0.019929076 -0.020268256 -0.017879386 0.019414842 0.013635468
-0.03354522 -0.01566261 0.02001023 0.019386018 0.025606832 -0.050373577 -0.013691391 0.025800798
-0.018072104 0.010693095 -0.006188146 -0.021981271 -0.009564525 -0.021239683 -0.04864415 0.0085331695
-0.024134498 -0.007439346 -0.010633241 0.014009788 -0.02919118 0.0051215226 -0.010933721 0.029458372
-0.023060683 -0.016762612 -0.03329786 -0.012849435 -0.02116525 0.030076144 -0.028934868 0.0019316361
-0.04554328 -0.06779425 0.017003203 -0.018639667 -0.024795653 -0.033609696 -0.045251675 -0.026033835
-0.037415877 0.009098215 0.020650037 -0.017071934 -0.0127751045 0.013558845 -0.010979067 -0.05619741
-0.046259012 -0.01895223 0.009215391 -0.002307353 -0.037645042 -0.0652799 -0.027974498 0.046446048
-0.07194476 -0.07476924 -0.024559073 -0.038046774 -0.053283073 -0.025593748 -0.047099426 -0.03472937
-0.034104522 -0.018413072 -0.031605754 0.012149718 -0.038623124 -0.044575147 0.024864208 0.019148178
0.037902698 -0.023658173 -0.029566564 -0.020291131 -0.064937696 -0.054204132 -0.014386705 -0.01791642
-0.018090399 0.028221782 0.032231264 0.038957957 0.028076185 0.014107776 0.06091224 0.07618375
-0.028473223 -0.04963396 -0.040039543 -0.00974884 -0.042921618 -0.032769453 -0.04631758 -0.05264023
-0.0125739705 0.031309288 -0.009223021 -0.003926239 -0.033599038 0.010898631 0.019380137 0.09219539
0.05293147 0.025848186 -0.010749872 0.018229079 -0.019265104 0.019935532 0.0562257 0.00011636462
-0.0016270783 0.038145877 0.0676096 0.04356853 0.07094548 0.05049969 -0.030805977 -0.0384773
0.006836279 -0.04767605 -0.06351721 -0.020172583 -0.08491222 -0.042035416 -0.05988628 -0.047550943
-0.06161787 -0.030213812 0.0050637503 0.021959227 0.0029516765 0.0061036358 -0.047071088 0.0033170471
00000000: a8bd 33bc 0f93 0abd 449d a13b 27b5 86ba
00000010: 8895 0e3b 2ac5 e43c 61c3 473d f6a6 edbc
00000020: 8c31 29bc bd97 773c 494c 9c3c 221a 1b3d
00000030: 2f41 8abb 8e49 5f3d e215 4c3d 36ff 2d3d
00000040: 8073 3abc 635c 51bb 324a bcbc 4435 303b
00000050: 160d 3abd 6874 e03b 4b45 0cbd 62b6 ffbb
00000060: 173e 3abd e720 96bc 130b 1b3c 49ac fd3c
00000070: 465b b23b b3e6 c33c bbf9 543b 6e79 0c3c
00000080: d6c2 a9bc 5a4c f33c f8d1 e3b9 4de9 32bc
00000090: 6caa 993b c2d8 3bbc ac78 083d 3949 30bb
000000a0: 6a9d 0c3d a03d 063d 7262 c5bc 5213 383d
000000b0: df69 5aba ddaf 10bc 4b4a ce3c ff65 583d
000000c0: 32f3 ca3c 1df2 3fbd 2fa4 b7bc c3e4 e3bc
000000d0: f07c 66b9 2e2b 18bb 35d5 0dbd a942 43bd
000000e0: 2b4e 503c 7c68 003a 1298 cf3c 9d82 c83c
000000f0: bf66 60bc 5521 863c c323 02bb 9dd7 a93c
00000100: 4236 abbc e9e9 933c a417 c939 bf90 3b3d
00000110: c5f8 803d 5134 c63c 9e91 903d ff67 373c
00000120: 616b b53d eda4 523d 524e a93d 2f7d 9a3d
00000130: e4a5 433d bbc7 783d b5c5 503d 56e9 843d
00000140: 2bdf 1d3d b84b b6bc 3a35 34bc 0958 e53c
00000150: 5a41 9f3c 2b92 f33c 4047 d73c 5130 183d
00000160: 3b9f 20bd 626b 54bd 3d24 40bd 61cc 1fbb
00000170: 0025 12bc 52ca 4fbd 4c15 16bd eee8 b4bc
00000180: 1f32 94bc eb71 41bc 2f57 57bd 9df5 99bd
00000190: 9cfc 61bd 1d39 aabc 02d0 07bd 2bfe 0ebc
000001a0: 1ef1 d73c 043d e8bc 2e5e 88ba 2b30 0c3d
000001b0: cfb3 eb3c 33c3 b43c c15d cdbc 0c95 21bd
000001c0: c543 333d cd66 893c eb01 8a3c 4d42 a33c
000001d0: 9d09 a6bc ca77 92bc e00b 9f3c 4c67 5f3c
000001e0: b666 09bd e04e 80bc 7eec a33c 6dcf 9e3c
000001f0: 6bc5 d13c 8654 4ebd db51 60bc 325c d33c
00000200: f30b 94bc 1732 2f3c eec5 cabb 1112 b4bc
00000210: 87b4 1cbc d8fe adbc 173f 47bd b5ce 0b3c
00000220: b6b5 c5bc c2c5 f3bb 0c37 2ebc 4f89 653c
00000230: 5722 efbc 72d2 a73b 5a23 33bc af52 f13c
00000240: c2e9 bcbc bf51 89bc 5663 08bd 7086 52bc
00000250: bf62 adbc 3f62 f63c d108 edbc f42e fd3a
00000260: 978b 3abd b6d7 8abd 4d4a 8b3c 37b2 98bc
00000270: 4120 cbbc 52aa 09bd d259 39bd e944 d5bc
00000280: 6441 19bd ae10 153c 442a a93c 71da 8bbc
00000290: ac4e 51bc eb25 5e3c 8be1 33bc 412f 66bd
000002a0: 177a 3dbd b541 9bbc 27fc 163c f636 17bb
000002b0: b031 1abd 78b1 85bd c62a e5bc 363e 3e3d
000002c0: c657 93bd 9e20 99bd 1c30 c9bc efd6 1bbd
000002d0: 5a3f 5abd fba9 d1bc 54eb 40bd 6240 0ebd
000002e0: 2fb1 0bbd 03d7 96bc 0975 01bd 9c0f 473c
000002f0: 4833 1ebd 6e94 36bd 06b0 cb3c a4dc 9c3c
00000300: dc3f 1b3d c9ce c1bc 9435 f2bc 9639 a6bc
00000310: 0efe 84bd 2705 5ebd 37b6 6bbc 75c5 92bc
00000320: 5132 94bc 5e31 e73c ee04 043d 6192 1f3d
00000330: 0700 e63c 4d24 673c 1d7f 793d 3a06 9c3d
00000340: ad40 e9bc fb4c 4bbd 8100 24bd 99b9 1fbc
00000350: 94ce 2fbd 4339 06bd 81b7 3dbd 489d 57bd
00000360: 0e03 4ebc 2b3e 003d 271c 17bc aea7 80bb
00000370: 259f 09bd 2c90 323c 18c3 9e3c f0d0 bc3d
00000380: abce 583d 93bf d33c 3b20 30bc 2655 953c
00000390: dad1 9dbc d74f a33c eb4c 663d c808 f438
000003a0: b043 d5ba da3e 1c3d e776 8a3d ea74 323d
000003b0: dd4b 913d c3d8 4e3d d15c fcbc 609a 1dbd
000003c0: dd02 e03b f647 43bd 5015 82bd f940 a5bc
000003d0: 75e6 adbd 542d 2cbd 514b 75bd c7c4 42bd
000003e0: 0563 7cbd f582 f7bc d1ed a53b d6e3 b33c
000003f0: ea70 413b 0201 c83b 9dcd 40bd d162 593b

batchnorm3.weight f4 [32]
1.1478585 1.1609868 1.1094807 1.1450264 1.1112117 1.0714992 1.1692529 1.0978289
1.1217854 1.0876962 1.1367677 1.0910441 1.1520407 1.234139 1.1466291 1.1053665
1.1240668 1.0927368 1.1052463 1.10879 1.0915252 1.1285998 1.0976977 1.0993005
1.0620544 1.1374035 1.1292994 1.1626348 1.0995796 1.1515993 1.1076173 1.1257763
00000000: 07ed 923f 379b 943f 7703 8e3f 3a90 923f
00000010: 2f3c 8e3f e326 893f 14aa 953f a885 8c3f
00000020: aa96 8f3f a139 8b3f 9b81 913f 55a7 8b3f
00000030: 1276 933f 44f8 9d3f bec4 923f a67c 8d3f
00000040: 6ce1 8f3f cdde 8b3f b678 8d3f d5ec 8d3f
00000050: 19b7 8b3f f575 903f 5c81 8c3f e1b5 8c3f
00000060: 66f1 873f 7096 913f e28c 903f 38d1 943f
00000070: 06bf 8c3f 9b67 933f 67c6 8d3f 7019 903f

batchnorm3.bias f4 [32]
0.0035647624 0.020706566 0.009971486 -0.0018362309 0.019029953 -0.016145213 -0.0070134006 0.032086145
-0.010473548 0.013005721 0.013834399 -0.014583428 0.018198589 -4.708313e-05 0.012595194 0.019559119
0.013756218 0.012537949 0.017790392 0.009031513 -0.015940484 -0.017282471 0.008825341 -0.004274128
0.0020721345 0.0108813 -0.015759144 0.016119227 -0.013393194 0.026535694 0.012029865 0.0032780373
00000000: ca9e 693b d1a0 a93c 725f 233c afad f0ba
00000010: b4e4 9b3c f742 84bc abd0 e5bb c36c 033d
00000020: 3f99 2bbc f315 553c ada9 623c 55ef 6ebc
00000030: 3515 953c 207b 45b8 135c 4e3c 723a a03c
00000040: c361 613c f86b 4d3c 28bd 913c e9f8 133c
00000050: 9e95 82bc f893 8dbc 2a98 103c fc0d 8cbb
00000060: a6cc 073b 7b47 323c 5219 81bc 780c 843c
00000070: 216f 5bbc 6261 d93c e918 453c 57d4 563b

batchnorm3.running_mean f4 [32]
0.21883804 0.18368343 0.04807004 0.047755767 0.20499635 0.04571221 0.0008134474 0.053986542
0.23981048 0.050311767 0.006067482 0.012164114 0.020514805 0.11949284 0.10490025 -0.010041325
-0.05299839 -0.015453611 0.07495032 0.07713711 0.2518844 0.05482985 0.013292623 0.14716926
0.19740108 0.083367325 -0.07424573 0.06748845 0.17646384 -0.006652857 -0.052289553 -0.07110941
00000000: 1417 603e 8217 3c3e 17e5 443d 8d9b 433d
00000010: 90ea 513e ba3c 3b3d 883d 553a fe20 5d3d
00000020: e190 753e b613 4e3d bad1 c63b fe4b 473c
00000030: aa0e a83c a9b8 f43d f1d5 d63d 5f84 24bc
00000040: d714 59bd 2431 7dbc 8e7f 993d 10fa 9d3d
00000050: fef6 803e 4495 603d 4dc9 593c 8ab3 163e
00000060: 8223 4a3e 7dbc aa3d 250e 98bd 6237 8a3d
00000070: f0b2 343e 3600 dabb 922d 56bd cfa1 91bd

batchnorm3.running_var f4 [32]
1.1350406 1.0534085 1.2229025 1.3604722 1.4668498 0.80549353 1.4753678 1.0801315
1.0086871 1.6100409 1.3911494 1.0686162 1.1152147 1.2437366 1.4162676 1.4551393
1.3507954 1.0070369 2.7655032 0.9982118 1.2630701 1.1988896 1.669591 1.0821778
1.5693705 2.1284976 1.0659862 1.757623 1.06455 2.1074886 1.7483908 0.73517275
00000000: 0349 913f 17d6 863f 1288 9c3f f423 ae3f
00000010: bcc1 bb3f d334 4e3f dad8 bc3f c041 8a3f
00000020: a91c 813f d215 ce3f 2f11 b23f 6ac8 883f
00000030: 5bbf 8e3f c332 9f3f 4248 b53f 0142 ba3f
00000040: dde6 ac3f 96e6 803f 01fe 3040 cf8a 7f3f
00000050: 48ac a13f 3775 993f 28b5 d53f cd84 8a3f
00000060: 22e1 c83f 4e39 0840 3c72 883f caf9 e03f
00000070: 2d43 883f 18e1 0640 45cb df3f 4834 3c3f

fc1.weight f4 [1, 224]
-0.1012593 -0.119605765 -0.025594236 -0.053121686 -0.073237576 0.022800384 -0.091302276 -0.0016502904
-0.18516299 0.001085765 -0.012380167 -0.1455002 -0.07077192 -0.055566244 0.038399972 0.05576642
0.04903014 -0.018532168 0.17479889 0.10753067 0.08045383 0.13797507 -0.057787366 0.024541248
0.07468906 0.10738378 0.071820475 0.09438399 -0.057432108 -0.13106216 -0.06695885 0.029333185
-0.14593983 -0.012725906 -0.100782655 0.10976459 0.08626536 0.035192672 -0.08081542 -0.019271689
0.06806394 -0.0892917 0.001397141 0.1062461 -0.049758412 -0.04005908 0.13896155 0.12936087
0.07168839 -0.009764 -0.041561443 0.010623407 0.08980102 0.15334551 0.0056149354 0.09631046
0.11063864 0.029615337 -0.01413401 -0.062388808 0.06234732 0.14755629 0.07192501 -0.1151444
-0.015299808 -0.045256656 -0.061926514 -0.11827769 -0.09541258 -0.024077829 0.02708291 -0.14458025
-0.14576295 0.015556503 -0.015239383 -0.06558638 -0.109283 0.0755748 0.0343096 0.10538337
0.1816268 0.076652676 -0.047947764 -0.020429557 0.0696501 -0.07076064 0.05732452 0.07248433
-0.11976059 -0.14492282 -0.10819799 0.0812509 -0.021142114 0.006405759 0.12274937 0.17837784
-0.03024722 0.07092421 -0.060006946 -0.12419778 -0.072258726 -0.03672033 -0.024676494 -0.08067948
-0.117641784 -0.13598709 0.06975247 -0.02557752 -0.09639812 -0.099323705 -0.011924304 -0.023922823
-0.12761028 0.04191494 -0.07830575 -0.12511735 -0.061567556 0.039247192 -0.06915622 0.022778146
0.034815475 0.072188795 0.1208113 0.056897208 0.09324608 -0.0152176265 -0.10701373 -0.10571818
-0.0488107 -0.07854901 -0.111025885 -0.05000107 0.009360824 -0.09468254 -0.052303478 0.01775019
-0.12000814 -0.058963872 0.04144267 -0.119156 0.040797304 -0.06904936 0.046283413 0.08030774
0.12677051 0.06845429 0.059612628 0.08833256 0.06612991 -0.037277646 0.118817545 0.052853886
0.03940464 0.10233645 -0.13091227 -0.005477756 -0.09910487 -0.07597959 -0.025960166 -0.10800998
-0.09366385 0.09159972 -0.022820598 0.12541926 0.07190593 0.033878017 0.102130115 0.025005292
0.043721803 0.047154754 0.09293176 0.09186979 0.056755956 0.029770093 0.06380901 -0.10863882
-0.08660928 -0.039220277 -0.009667934 -0.059328336 -0.02869213 -0.124676615 -0.072836466 0.120980255
0.052435115 0.083963715 0.07542651 0.1580399 0.021560907 -0.005202438 -0.07305058 -0.044761367
-0.013636994 -0.110360615 -0.13437933 -0.070954256 0.1161897 0.02256596 0.058149323 0.0128754005
-0.033689495 0.0481177 0.06138406 -0.13082345 -0.05044055 -0.049031842 0.013392731 -0.11554654
-0.13112557 -0.026823947 -0.043563828 -0.033112757 -0.11880714 -0.07372676 -0.038476475 -0.12865947
-0.08528323 0.07305645 0.018365806 0.12612475 0.046756048 0.10447105 -0.029796822 0.00047591643
00000000: 0961 cfbd def3 f4bd 01ab d1bc 2096 59bd
00000010: 95fd 95bd dfc7 ba3c b0fc babd 8f4e d8ba
00000020: 5e9b 3dbe 3a50 8e3a 2fd6 4abc 01fe 14be
00000030: def0 90bd 6e99 63bd 4a49 1d3d 546b 643d
00000040: d4d3 483d c6d0 97bc 7bfe 323e 0a39 dc3d
00000050: fac4 a43d 5649 0d3e 72b2 6cbd ba0a c93c
00000060: 94f6 983d 07ec db3d 9d16 933d 654c c13d
00000070: ee3d 6bbd 2935 06be b921 89bd 264c f03c
00000080: 4071 15be 5280 50bc 2367 cebd 42cc e03d
00000090: e5ab b03d 3126 103d 8e82 a5bd a9df 9dbc
000000a0: 1b65 8b3d 91de b6bd 4620 b73a 8e97 d93d
000000b0: 7acf 4bbd fd14 24bd f04b 0e3e 2d77 043e
000000c0: 5dd1 923d 2ff9 1fbc 553c 2abd cc0d 2e3c
000000d0: 99e9 b73d 9b06 1d3e 7efd b73b 6b3e c53d
000000e0: 8396 e23d dd9b f23c 5692 67bc 688b 7fbd
000000f0: e75f 7f3d ff18 173e 6b4d 933d d4d0 ebbd
00000100: 0cac 7abc 0b5f 39bd a8a6 7dbd 933b f2bd
00000110: ac67 c3bd de3e c5bc fbdc dd3c d80c 14be
00000120: e242 15be b4e0 7e3c 9bae 79bc 2752 86bd
00000130: c4cf dfbd f6c6 9a3d 3988 0c3d 3cd3 d73d
00000140: 60fc 393e 14fc 9c3d e064 44bd e35b a7bc
00000150: b6a4 8e3d f4ea 90bd 1ecd 6a3d aa72 943d
00000160: 0a45 f5bd a666 14be e896 ddbd df66 a63d
00000170: 3a32 adbc 67e7 d13b 0664 fb3d aea8 363e
00000180: 05c9 f7bc b640 913d d8c9 75bd 685b febd
00000190: 62fc 93bd 0f68 16bd 5c26 cabc 493b a5bd
000001a0: 2dee f0bd 3340 0bbe 62da 8e3d f287 d1bc
000001b0: 616c c5bd 3a6a cbbd 285e 43bc ccf9 c3bc
000001c0: 45ac 02be 00af 2b3d c45e a0bd c31e 00be
000001d0: 432e 7cbd aac1 203d c7a1 8dbd 3c99 ba3c
000001e0: ac9a 0e3d b8d7 933d ea6b f73d 0c0d 693d
000001f0: cdf7 be3d 5a53 79bc 042a dbbd c682 d8bd
00000200: bbed 47bd 4ede a0bd 8a61 e3bd eccd 4cbd
00000210: 245e 193c ebe8 c1bd 2c3c 56bd d968 913c
00000220: d4c6 f5bd 1a84 71bd cabf 293d 1008 f4bd
00000230: 131b 273d c069 8dbd ad93 3d3d 6278 a43d
00000240: 21d0 013e c331 8c3d 5f2c 743d b4e7 b43d
00000250: 1e6f 873d 72b0 18bd 9d56 f33d 517d 583d
00000260: c366 213d c695 d13d de0d 06be bf7e b3bb
00000270: 7ef7 cabd 309b 9bbd 6aaa d4bc 5634 ddbd
00000280: d5d2 bfbd a298 bb3d 43f2 babc e86d 003e
00000290: 6b43 933d adc3 0a3d 9829 d13d e6d7 cc3c
000002a0: a215 333d 5825 413d 0253 be3d 3a26 bc3d
000002b0: ef78 683d 69e0 f33c 4cae 823d 087e debd
000002c0: 3560 b1bd 71a5 20bd 4166 1ebc 4502 73bd
000002d0: c20b ebbc 7456 ffbd 492b 95bd 7fc4 f73d
000002e0: 34c6 563d 2bf5 ab3d 3779 9a3d 36d5 213e
000002f0: 80a0 b03c 3779 aabb 8b9b 95bd b257 37bd
00000300: b36d 5fbc bf04 e2bd bc9a 09be 7750 91bd
00000310: def4 ed3d 40dc b83c fc2d 6e3d 58f3 523c
00000320: fffd 09bd 1117 453d da6d 7b3d 95f6 05be
00000330: c09a 4ebd 9dd5 48bd 2f6d 5b3c aaa3 ecbd
00000340: c845 06be e5bd dbbc fc6f 32bd 3ea1 07bd
00000350: 2851 f3bd 0efe 96bd 8299 1dbd 4fbf 03be
00000360: f9a8 aebd 9f9e 953d e373 963c d926 013e
00000370: 4583 3f3d ebf4 d53d 7718 f4bc 6c84 f939
